2025-12-16 12:56:27.157 | DEBUG    | llmcompressor.core.lifecycle:reset:59 - Resetting compression lifecycle
2025-12-16 12:56:27.158 | INFO     | llmcompressor.core.lifecycle:reset:71 - Compression lifecycle reset
2025-12-16 12:56:27.158 | DEBUG    | llmcompressor.core.state:update:182 - Updating state with provided parameters: {'model': LlamaForCausalLM(
  (model): LlamaModel(
    (embed_tokens): Embedding(128256, 4096)
    (layers): ModuleList(
      (0-31): 32 x LlamaDecoderLayer(
        (self_attn): LlamaAttention(
          (q_proj): lora.Linear(
            (base_layer): Linear(in_features=4096, out_features=4096, bias=False)
            (lora_dropout): ModuleDict(
              (default): Dropout(p=0.05, inplace=False)
            )
            (lora_A): ModuleDict(
              (default): Linear(in_features=4096, out_features=16, bias=False)
            )
            (lora_B): ModuleDict(
              (default): Linear(in_features=16, out_features=4096, bias=False)
            )
            (lora_embedding_A): ParameterDict()
            (lora_embedding_B): ParameterDict()
            (lora_magnitude_vector): ModuleDict()
          )
          (k_proj): lora.Linear(
            (base_layer): Linear(in_features=4096, out_features=1024, bias=False)
            (lora_dropout): ModuleDict(
              (default): Dropout(p=0.05, inplace=False)
            )
            (lora_A): ModuleDict(
              (default): Linear(in_features=4096, out_features=16, bias=False)
            )
            (lora_B): ModuleDict(
              (default): Linear(in_features=16, out_features=1024, bias=False)
            )
            (lora_embedding_A): ParameterDict()
            (lora_embedding_B): ParameterDict()
            (lora_magnitude_vector): ModuleDict()
          )
          (v_proj): lora.Linear(
            (base_layer): Linear(in_features=4096, out_features=1024, bias=False)
            (lora_dropout): ModuleDict(
              (default): Dropout(p=0.05, inplace=False)
            )
            (lora_A): ModuleDict(
              (default): Linear(in_features=4096, out_features=16, bias=False)
            )
            (lora_B): ModuleDict(
              (default): Linear(in_features=16, out_features=1024, bias=False)
            )
            (lora_embedding_A): ParameterDict()
            (lora_embedding_B): ParameterDict()
            (lora_magnitude_vector): ModuleDict()
          )
          (o_proj): lora.Linear(
            (base_layer): Linear(in_features=4096, out_features=4096, bias=False)
            (lora_dropout): ModuleDict(
              (default): Dropout(p=0.05, inplace=False)
            )
            (lora_A): ModuleDict(
              (default): Linear(in_features=4096, out_features=16, bias=False)
            )
            (lora_B): ModuleDict(
              (default): Linear(in_features=16, out_features=4096, bias=False)
            )
            (lora_embedding_A): ParameterDict()
            (lora_embedding_B): ParameterDict()
            (lora_magnitude_vector): ModuleDict()
          )
        )
        (mlp): LlamaMLP(
          (gate_proj): lora.Linear(
            (base_layer): Linear(in_features=4096, out_features=14336, bias=False)
            (lora_dropout): ModuleDict(
              (default): Dropout(p=0.05, inplace=False)
            )
            (lora_A): ModuleDict(
              (default): Linear(in_features=4096, out_features=16, bias=False)
            )
            (lora_B): ModuleDict(
              (default): Linear(in_features=16, out_features=14336, bias=False)
            )
            (lora_embedding_A): ParameterDict()
            (lora_embedding_B): ParameterDict()
            (lora_magnitude_vector): ModuleDict()
          )
          (up_proj): Linear(in_features=4096, out_features=14336, bias=False)
          (down_proj): Linear(in_features=14336, out_features=4096, bias=False)
          (act_fn): SiLUActivation()
        )
        (input_layernorm): LlamaRMSNorm((4096,), eps=1e-05)
        (post_attention_layernorm): LlamaRMSNorm((4096,), eps=1e-05)
      )
    )
    (norm): LlamaRMSNorm((4096,), eps=1e-05)
    (rotary_emb): LlamaRotaryEmbedding()
  )
  (lm_head): Linear(in_features=4096, out_features=128256, bias=False)
), 'teacher_model': None, 'optimizer': None, 'attach_optim_callbacks': True, 'train_data': None, 'val_data': None, 'test_data': None, 'calib_data': <torch.utils.data.dataloader.DataLoader object at 0x7f6cb00c8b10>, 'copy_data': True, 'start': -1, 'steps_per_epoch': None, 'batches_per_step': None, 'loggers': None, 'model_log_cadence': None, 'kwargs': {}}
…
